{"format": "layers-model", "generatedBy": "keras v2.2.4", "convertedBy": "TensorFlow.js Converter v1.2.6", "modelTopology": {"keras_version": "2.2.4", "backend": "tensorflow", "model_config": {"class_name": "Model", "config": {"name": "model_1", "layers": [{"name": "input", "class_name": "InputLayer", "config": {"batch_input_shape": [null, null, null, 3], "dtype": "float32", "sparse": false, "name": "input"}, "inbound_nodes": []}, {"name": "conv2d_1", "class_name": "Conv2D", "config": {"name": "conv2d_1", "trainable": true, "filters": 16, "kernel_size": [3, 3], "strides": [1, 1], "padding": "same", "data_format": "channels_last", "dilation_rate": [1, 1], "activation": "linear", "use_bias": true, "kernel_initializer": {"class_name": "VarianceScaling", "config": {"scale": 1.0, "mode": "fan_avg", "distribution": "uniform", "seed": null}}, "bias_initializer": {"class_name": "Zeros", "config": {}}, "kernel_regularizer": null, "bias_regularizer": null, "activity_regularizer": null, "kernel_constraint": null, "bias_constraint": null}, "inbound_nodes": [[["input", 0, 0, {}]]]}, {"name": "batch_normalization_1", "class_name": "BatchNormalization", "config": {"name": "batch_normalization_1", "trainable": true, "axis": -1, "momentum": 0.99, "epsilon": 0.001, "center": true, "scale": true, "beta_initializer": {"class_name": "Zeros", "config": {}}, "gamma_initializer": {"class_name": "Ones", "config": {}}, "moving_mean_initializer": {"class_name": "Zeros", "config": {}}, "moving_variance_initializer": {"class_name": "Ones", "config": {}}, "beta_regularizer": null, "gamma_regularizer": null, "beta_constraint": null, "gamma_constraint": null}, "inbound_nodes": [[["conv2d_1", 0, 0, {}]]]}, {"name": "activation_1", "class_name": "Activation", "config": {"name": "activation_1", "trainable": true, "activation": "relu"}, "inbound_nodes": [[["batch_normalization_1", 0, 0, {}]]]}, {"name": "conv2d_2", "class_name": "Conv2D", "config": {"name": "conv2d_2", "trainable": true, "filters": 16, "kernel_size": [3, 3], "strides": [1, 1], "padding": "same", "data_format": "channels_last", "dilation_rate": [1, 1], "activation": "linear", "use_bias": true, "kernel_initializer": {"class_name": "VarianceScaling", "config": {"scale": 1.0, "mode": "fan_avg", "distribution": "uniform", "seed": null}}, "bias_initializer": {"class_name": "Zeros", "config": {}}, "kernel_regularizer": null, "bias_regularizer": null, "activity_regularizer": null, "kernel_constraint": null, "bias_constraint": null}, "inbound_nodes": [[["activation_1", 0, 0, {}]]]}, {"name": "batch_normalization_2", "class_name": "BatchNormalization", "config": {"name": "batch_normalization_2", "trainable": true, "axis": -1, "momentum": 0.99, "epsilon": 0.001, "center": true, "scale": true, "beta_initializer": {"class_name": "Zeros", "config": {}}, "gamma_initializer": {"class_name": "Ones", "config": {}}, "moving_mean_initializer": {"class_name": "Zeros", "config": {}}, "moving_variance_initializer": {"class_name": "Ones", "config": {}}, "beta_regularizer": null, "gamma_regularizer": null, "beta_constraint": null, "gamma_constraint": null}, "inbound_nodes": [[["conv2d_2", 0, 0, {}]]]}, {"name": "activation_2", "class_name": "Activation", "config": {"name": "activation_2", "trainable": true, "activation": "relu"}, "inbound_nodes": [[["batch_normalization_2", 0, 0, {}]]]}, {"name": "max_pooling2d_1", "class_name": "MaxPooling2D", "config": {"name": "max_pooling2d_1", "trainable": true, "pool_size": [2, 2], "padding": "valid", "strides": [2, 2], "data_format": "channels_last"}, "inbound_nodes": [[["activation_2", 0, 0, {}]]]}, {"name": "conv2d_3", "class_name": "Conv2D", "config": {"name": "conv2d_3", "trainable": true, "filters": 32, "kernel_size": [3, 3], "strides": [1, 1], "padding": "same", "data_format": "channels_last", "dilation_rate": [1, 1], "activation": "linear", "use_bias": true, "kernel_initializer": {"class_name": "VarianceScaling", "config": {"scale": 1.0, "mode": "fan_avg", "distribution": "uniform", "seed": null}}, "bias_initializer": {"class_name": "Zeros", "config": {}}, "kernel_regularizer": null, "bias_regularizer": null, "activity_regularizer": null, "kernel_constraint": null, "bias_constraint": null}, "inbound_nodes": [[["max_pooling2d_1", 0, 0, {}]]]}, {"name": "batch_normalization_3", "class_name": "BatchNormalization", "config": {"name": "batch_normalization_3", "trainable": true, "axis": -1, "momentum": 0.99, "epsilon": 0.001, "center": true, "scale": true, "beta_initializer": {"class_name": "Zeros", "config": {}}, "gamma_initializer": {"class_name": "Ones", "config": {}}, "moving_mean_initializer": {"class_name": "Zeros", "config": {}}, "moving_variance_initializer": {"class_name": "Ones", "config": {}}, "beta_regularizer": null, "gamma_regularizer": null, "beta_constraint": null, "gamma_constraint": null}, "inbound_nodes": [[["conv2d_3", 0, 0, {}]]]}, {"name": "activation_3", "class_name": "Activation", "config": {"name": "activation_3", "trainable": true, "activation": "relu"}, "inbound_nodes": [[["batch_normalization_3", 0, 0, {}]]]}, {"name": "conv2d_4", "class_name": "Conv2D", "config": {"name": "conv2d_4", "trainable": true, "filters": 32, "kernel_size": [3, 3], "strides": [1, 1], "padding": "same", "data_format": "channels_last", "dilation_rate": [1, 1], "activation": "linear", "use_bias": true, "kernel_initializer": {"class_name": "VarianceScaling", "config": {"scale": 1.0, "mode": "fan_avg", "distribution": "uniform", "seed": null}}, "bias_initializer": {"class_name": "Zeros", "config": {}}, "kernel_regularizer": null, "bias_regularizer": null, "activity_regularizer": null, "kernel_constraint": null, "bias_constraint": null}, "inbound_nodes": [[["activation_3", 0, 0, {}]]]}, {"name": "batch_normalization_4", "class_name": "BatchNormalization", "config": {"name": "batch_normalization_4", "trainable": true, "axis": -1, "momentum": 0.99, "epsilon": 0.001, "center": true, "scale": true, "beta_initializer": {"class_name": "Zeros", "config": {}}, "gamma_initializer": {"class_name": "Ones", "config": {}}, "moving_mean_initializer": {"class_name": "Zeros", "config": {}}, "moving_variance_initializer": {"class_name": "Ones", "config": {}}, "beta_regularizer": null, "gamma_regularizer": null, "beta_constraint": null, "gamma_constraint": null}, "inbound_nodes": [[["conv2d_4", 0, 0, {}]]]}, {"name": "activation_4", "class_name": "Activation", "config": {"name": "activation_4", "trainable": true, "activation": "relu"}, "inbound_nodes": [[["batch_normalization_4", 0, 0, {}]]]}, {"name": "conv2d_5", "class_name": "Conv2D", "config": {"name": "conv2d_5", "trainable": true, "filters": 32, "kernel_size": [3, 3], "strides": [1, 1], "padding": "same", "data_format": "channels_last", "dilation_rate": [1, 1], "activation": "linear", "use_bias": true, "kernel_initializer": {"class_name": "VarianceScaling", "config": {"scale": 1.0, "mode": "fan_avg", "distribution": "uniform", "seed": null}}, "bias_initializer": {"class_name": "Zeros", "config": {}}, "kernel_regularizer": null, "bias_regularizer": null, "activity_regularizer": null, "kernel_constraint": null, "bias_constraint": null}, "inbound_nodes": [[["activation_4", 0, 0, {}]]]}, {"name": "batch_normalization_5", "class_name": "BatchNormalization", "config": {"name": "batch_normalization_5", "trainable": true, "axis": -1, "momentum": 0.99, "epsilon": 0.001, "center": true, "scale": true, "beta_initializer": {"class_name": "Zeros", "config": {}}, "gamma_initializer": {"class_name": "Ones", "config": {}}, "moving_mean_initializer": {"class_name": "Zeros", "config": {}}, "moving_variance_initializer": {"class_name": "Ones", "config": {}}, "beta_regularizer": null, "gamma_regularizer": null, "beta_constraint": null, "gamma_constraint": null}, "inbound_nodes": [[["conv2d_5", 0, 0, {}]]]}, {"name": "add_1", "class_name": "Add", "config": {"name": "add_1", "trainable": true}, "inbound_nodes": [[["batch_normalization_5", 0, 0, {}], ["activation_3", 0, 0, {}]]]}, {"name": "activation_5", "class_name": "Activation", "config": {"name": "activation_5", "trainable": true, "activation": "relu"}, "inbound_nodes": [[["add_1", 0, 0, {}]]]}, {"name": "max_pooling2d_2", "class_name": "MaxPooling2D", "config": {"name": "max_pooling2d_2", "trainable": true, "pool_size": [2, 2], "padding": "valid", "strides": [2, 2], "data_format": "channels_last"}, "inbound_nodes": [[["activation_5", 0, 0, {}]]]}, {"name": "conv2d_6", "class_name": "Conv2D", "config": {"name": "conv2d_6", "trainable": true, "filters": 64, "kernel_size": [3, 3], "strides": [1, 1], "padding": "same", "data_format": "channels_last", "dilation_rate": [1, 1], "activation": "linear", "use_bias": true, "kernel_initializer": {"class_name": "VarianceScaling", "config": {"scale": 1.0, "mode": "fan_avg", "distribution": "uniform", "seed": null}}, "bias_initializer": {"class_name": "Zeros", "config": {}}, "kernel_regularizer": null, "bias_regularizer": null, "activity_regularizer": null, "kernel_constraint": null, "bias_constraint": null}, "inbound_nodes": [[["max_pooling2d_2", 0, 0, {}]]]}, {"name": "batch_normalization_6", "class_name": "BatchNormalization", "config": {"name": "batch_normalization_6", "trainable": true, "axis": -1, "momentum": 0.99, "epsilon": 0.001, "center": true, "scale": true, "beta_initializer": {"class_name": "Zeros", "config": {}}, "gamma_initializer": {"class_name": "Ones", "config": {}}, "moving_mean_initializer": {"class_name": "Zeros", "config": {}}, "moving_variance_initializer": {"class_name": "Ones", "config": {}}, "beta_regularizer": null, "gamma_regularizer": null, "beta_constraint": null, "gamma_constraint": null}, "inbound_nodes": [[["conv2d_6", 0, 0, {}]]]}, {"name": "activation_6", "class_name": "Activation", "config": {"name": "activation_6", "trainable": true, "activation": "relu"}, "inbound_nodes": [[["batch_normalization_6", 0, 0, {}]]]}, {"name": "conv2d_7", "class_name": "Conv2D", "config": {"name": "conv2d_7", "trainable": true, "filters": 64, "kernel_size": [3, 3], "strides": [1, 1], "padding": "same", "data_format": "channels_last", "dilation_rate": [1, 1], "activation": "linear", "use_bias": true, "kernel_initializer": {"class_name": "VarianceScaling", "config": {"scale": 1.0, "mode": "fan_avg", "distribution": "uniform", "seed": null}}, "bias_initializer": {"class_name": "Zeros", "config": {}}, "kernel_regularizer": null, "bias_regularizer": null, "activity_regularizer": null, "kernel_constraint": null, "bias_constraint": null}, "inbound_nodes": [[["activation_6", 0, 0, {}]]]}, {"name": "batch_normalization_7", "class_name": "BatchNormalization", "config": {"name": "batch_normalization_7", "trainable": true, "axis": -1, "momentum": 0.99, "epsilon": 0.001, "center": true, "scale": true, "beta_initializer": {"class_name": "Zeros", "config": {}}, "gamma_initializer": {"class_name": "Ones", "config": {}}, "moving_mean_initializer": {"class_name": "Zeros", "config": {}}, "moving_variance_initializer": {"class_name": "Ones", "config": {}}, "beta_regularizer": null, "gamma_regularizer": null, "beta_constraint": null, "gamma_constraint": null}, "inbound_nodes": [[["conv2d_7", 0, 0, {}]]]}, {"name": "activation_7", "class_name": "Activation", "config": {"name": "activation_7", "trainable": true, "activation": "relu"}, "inbound_nodes": [[["batch_normalization_7", 0, 0, {}]]]}, {"name": "conv2d_8", "class_name": "Conv2D", "config": {"name": "conv2d_8", "trainable": true, "filters": 64, "kernel_size": [3, 3], "strides": [1, 1], "padding": "same", "data_format": "channels_last", "dilation_rate": [1, 1], "activation": "linear", "use_bias": true, "kernel_initializer": {"class_name": "VarianceScaling", "config": {"scale": 1.0, "mode": "fan_avg", "distribution": "uniform", "seed": null}}, "bias_initializer": {"class_name": "Zeros", "config": {}}, "kernel_regularizer": null, "bias_regularizer": null, "activity_regularizer": null, "kernel_constraint": null, "bias_constraint": null}, "inbound_nodes": [[["activation_7", 0, 0, {}]]]}, {"name": "batch_normalization_8", "class_name": "BatchNormalization", "config": {"name": "batch_normalization_8", "trainable": true, "axis": -1, "momentum": 0.99, "epsilon": 0.001, "center": true, "scale": true, "beta_initializer": {"class_name": "Zeros", "config": {}}, "gamma_initializer": {"class_name": "Ones", "config": {}}, "moving_mean_initializer": {"class_name": "Zeros", "config": {}}, "moving_variance_initializer": {"class_name": "Ones", "config": {}}, "beta_regularizer": null, "gamma_regularizer": null, "beta_constraint": null, "gamma_constraint": null}, "inbound_nodes": [[["conv2d_8", 0, 0, {}]]]}, {"name": "add_2", "class_name": "Add", "config": {"name": "add_2", "trainable": true}, "inbound_nodes": [[["batch_normalization_8", 0, 0, {}], ["activation_6", 0, 0, {}]]]}, {"name": "activation_8", "class_name": "Activation", "config": {"name": "activation_8", "trainable": true, "activation": "relu"}, "inbound_nodes": [[["add_2", 0, 0, {}]]]}, {"name": "conv2d_9", "class_name": "Conv2D", "config": {"name": "conv2d_9", "trainable": true, "filters": 64, "kernel_size": [3, 3], "strides": [1, 1], "padding": "same", "data_format": "channels_last", "dilation_rate": [1, 1], "activation": "linear", "use_bias": true, "kernel_initializer": {"class_name": "VarianceScaling", "config": {"scale": 1.0, "mode": "fan_avg", "distribution": "uniform", "seed": null}}, "bias_initializer": {"class_name": "Zeros", "config": {}}, "kernel_regularizer": null, "bias_regularizer": null, "activity_regularizer": null, "kernel_constraint": null, "bias_constraint": null}, "inbound_nodes": [[["activation_8", 0, 0, {}]]]}, {"name": "batch_normalization_9", "class_name": "BatchNormalization", "config": {"name": "batch_normalization_9", "trainable": true, "axis": -1, "momentum": 0.99, "epsilon": 0.001, "center": true, "scale": true, "beta_initializer": {"class_name": "Zeros", "config": {}}, "gamma_initializer": {"class_name": "Ones", "config": {}}, "moving_mean_initializer": {"class_name": "Zeros", "config": {}}, "moving_variance_initializer": {"class_name": "Ones", "config": {}}, "beta_regularizer": null, "gamma_regularizer": null, "beta_constraint": null, "gamma_constraint": null}, "inbound_nodes": [[["conv2d_9", 0, 0, {}]]]}, {"name": "activation_9", "class_name": "Activation", "config": {"name": "activation_9", "trainable": true, "activation": "relu"}, "inbound_nodes": [[["batch_normalization_9", 0, 0, {}]]]}, {"name": "conv2d_10", "class_name": "Conv2D", "config": {"name": "conv2d_10", "trainable": true, "filters": 64, "kernel_size": [3, 3], "strides": [1, 1], "padding": "same", "data_format": "channels_last", "dilation_rate": [1, 1], "activation": "linear", "use_bias": true, "kernel_initializer": {"class_name": "VarianceScaling", "config": {"scale": 1.0, "mode": "fan_avg", "distribution": "uniform", "seed": null}}, "bias_initializer": {"class_name": "Zeros", "config": {}}, "kernel_regularizer": null, "bias_regularizer": null, "activity_regularizer": null, "kernel_constraint": null, "bias_constraint": null}, "inbound_nodes": [[["activation_9", 0, 0, {}]]]}, {"name": "batch_normalization_10", "class_name": "BatchNormalization", "config": {"name": "batch_normalization_10", "trainable": true, "axis": -1, "momentum": 0.99, "epsilon": 0.001, "center": true, "scale": true, "beta_initializer": {"class_name": "Zeros", "config": {}}, "gamma_initializer": {"class_name": "Ones", "config": {}}, "moving_mean_initializer": {"class_name": "Zeros", "config": {}}, "moving_variance_initializer": {"class_name": "Ones", "config": {}}, "beta_regularizer": null, "gamma_regularizer": null, "beta_constraint": null, "gamma_constraint": null}, "inbound_nodes": [[["conv2d_10", 0, 0, {}]]]}, {"name": "add_3", "class_name": "Add", "config": {"name": "add_3", "trainable": true}, "inbound_nodes": [[["batch_normalization_10", 0, 0, {}], ["activation_8", 0, 0, {}]]]}, {"name": "activation_10", "class_name": "Activation", "config": {"name": "activation_10", "trainable": true, "activation": "relu"}, "inbound_nodes": [[["add_3", 0, 0, {}]]]}, {"name": "max_pooling2d_3", "class_name": "MaxPooling2D", "config": {"name": "max_pooling2d_3", "trainable": true, "pool_size": [2, 2], "padding": "valid", "strides": [2, 2], "data_format": "channels_last"}, "inbound_nodes": [[["activation_10", 0, 0, {}]]]}, {"name": "conv2d_11", "class_name": "Conv2D", "config": {"name": "conv2d_11", "trainable": true, "filters": 64, "kernel_size": [3, 3], "strides": [1, 1], "padding": "same", "data_format": "channels_last", "dilation_rate": [1, 1], "activation": "linear", "use_bias": true, "kernel_initializer": {"class_name": "VarianceScaling", "config": {"scale": 1.0, "mode": "fan_avg", "distribution": "uniform", "seed": null}}, "bias_initializer": {"class_name": "Zeros", "config": {}}, "kernel_regularizer": null, "bias_regularizer": null, "activity_regularizer": null, "kernel_constraint": null, "bias_constraint": null}, "inbound_nodes": [[["max_pooling2d_3", 0, 0, {}]]]}, {"name": "batch_normalization_11", "class_name": "BatchNormalization", "config": {"name": "batch_normalization_11", "trainable": true, "axis": -1, "momentum": 0.99, "epsilon": 0.001, "center": true, "scale": true, "beta_initializer": {"class_name": "Zeros", "config": {}}, "gamma_initializer": {"class_name": "Ones", "config": {}}, "moving_mean_initializer": {"class_name": "Zeros", "config": {}}, "moving_variance_initializer": {"class_name": "Ones", "config": {}}, "beta_regularizer": null, "gamma_regularizer": null, "beta_constraint": null, "gamma_constraint": null}, "inbound_nodes": [[["conv2d_11", 0, 0, {}]]]}, {"name": "activation_11", "class_name": "Activation", "config": {"name": "activation_11", "trainable": true, "activation": "relu"}, "inbound_nodes": [[["batch_normalization_11", 0, 0, {}]]]}, {"name": "conv2d_12", "class_name": "Conv2D", "config": {"name": "conv2d_12", "trainable": true, "filters": 64, "kernel_size": [3, 3], "strides": [1, 1], "padding": "same", "data_format": "channels_last", "dilation_rate": [1, 1], "activation": "linear", "use_bias": true, "kernel_initializer": {"class_name": "VarianceScaling", "config": {"scale": 1.0, "mode": "fan_avg", "distribution": "uniform", "seed": null}}, "bias_initializer": {"class_name": "Zeros", "config": {}}, "kernel_regularizer": null, "bias_regularizer": null, "activity_regularizer": null, "kernel_constraint": null, "bias_constraint": null}, "inbound_nodes": [[["activation_11", 0, 0, {}]]]}, {"name": "batch_normalization_12", "class_name": "BatchNormalization", "config": {"name": "batch_normalization_12", "trainable": true, "axis": -1, "momentum": 0.99, "epsilon": 0.001, "center": true, "scale": true, "beta_initializer": {"class_name": "Zeros", "config": {}}, "gamma_initializer": {"class_name": "Ones", "config": {}}, "moving_mean_initializer": {"class_name": "Zeros", "config": {}}, "moving_variance_initializer": {"class_name": "Ones", "config": {}}, "beta_regularizer": null, "gamma_regularizer": null, "beta_constraint": null, "gamma_constraint": null}, "inbound_nodes": [[["conv2d_12", 0, 0, {}]]]}, {"name": "activation_12", "class_name": "Activation", "config": {"name": "activation_12", "trainable": true, "activation": "relu"}, "inbound_nodes": [[["batch_normalization_12", 0, 0, {}]]]}, {"name": "conv2d_13", "class_name": "Conv2D", "config": {"name": "conv2d_13", "trainable": true, "filters": 64, "kernel_size": [3, 3], "strides": [1, 1], "padding": "same", "data_format": "channels_last", "dilation_rate": [1, 1], "activation": "linear", "use_bias": true, "kernel_initializer": {"class_name": "VarianceScaling", "config": {"scale": 1.0, "mode": "fan_avg", "distribution": "uniform", "seed": null}}, "bias_initializer": {"class_name": "Zeros", "config": {}}, "kernel_regularizer": null, "bias_regularizer": null, "activity_regularizer": null, "kernel_constraint": null, "bias_constraint": null}, "inbound_nodes": [[["activation_12", 0, 0, {}]]]}, {"name": "batch_normalization_13", "class_name": "BatchNormalization", "config": {"name": "batch_normalization_13", "trainable": true, "axis": -1, "momentum": 0.99, "epsilon": 0.001, "center": true, "scale": true, "beta_initializer": {"class_name": "Zeros", "config": {}}, "gamma_initializer": {"class_name": "Ones", "config": {}}, "moving_mean_initializer": {"class_name": "Zeros", "config": {}}, "moving_variance_initializer": {"class_name": "Ones", "config": {}}, "beta_regularizer": null, "gamma_regularizer": null, "beta_constraint": null, "gamma_constraint": null}, "inbound_nodes": [[["conv2d_13", 0, 0, {}]]]}, {"name": "add_4", "class_name": "Add", "config": {"name": "add_4", "trainable": true}, "inbound_nodes": [[["batch_normalization_13", 0, 0, {}], ["activation_11", 0, 0, {}]]]}, {"name": "activation_13", "class_name": "Activation", "config": {"name": "activation_13", "trainable": true, "activation": "relu"}, "inbound_nodes": [[["add_4", 0, 0, {}]]]}, {"name": "conv2d_14", "class_name": "Conv2D", "config": {"name": "conv2d_14", "trainable": true, "filters": 64, "kernel_size": [3, 3], "strides": [1, 1], "padding": "same", "data_format": "channels_last", "dilation_rate": [1, 1], "activation": "linear", "use_bias": true, "kernel_initializer": {"class_name": "VarianceScaling", "config": {"scale": 1.0, "mode": "fan_avg", "distribution": "uniform", "seed": null}}, "bias_initializer": {"class_name": "Zeros", "config": {}}, "kernel_regularizer": null, "bias_regularizer": null, "activity_regularizer": null, "kernel_constraint": null, "bias_constraint": null}, "inbound_nodes": [[["activation_13", 0, 0, {}]]]}, {"name": "batch_normalization_14", "class_name": "BatchNormalization", "config": {"name": "batch_normalization_14", "trainable": true, "axis": -1, "momentum": 0.99, "epsilon": 0.001, "center": true, "scale": true, "beta_initializer": {"class_name": "Zeros", "config": {}}, "gamma_initializer": {"class_name": "Ones", "config": {}}, "moving_mean_initializer": {"class_name": "Zeros", "config": {}}, "moving_variance_initializer": {"class_name": "Ones", "config": {}}, "beta_regularizer": null, "gamma_regularizer": null, "beta_constraint": null, "gamma_constraint": null}, "inbound_nodes": [[["conv2d_14", 0, 0, {}]]]}, {"name": "activation_14", "class_name": "Activation", "config": {"name": "activation_14", "trainable": true, "activation": "relu"}, "inbound_nodes": [[["batch_normalization_14", 0, 0, {}]]]}, {"name": "conv2d_15", "class_name": "Conv2D", "config": {"name": "conv2d_15", "trainable": true, "filters": 64, "kernel_size": [3, 3], "strides": [1, 1], "padding": "same", "data_format": "channels_last", "dilation_rate": [1, 1], "activation": "linear", "use_bias": true, "kernel_initializer": {"class_name": "VarianceScaling", "config": {"scale": 1.0, "mode": "fan_avg", "distribution": "uniform", "seed": null}}, "bias_initializer": {"class_name": "Zeros", "config": {}}, "kernel_regularizer": null, "bias_regularizer": null, "activity_regularizer": null, "kernel_constraint": null, "bias_constraint": null}, "inbound_nodes": [[["activation_14", 0, 0, {}]]]}, {"name": "batch_normalization_15", "class_name": "BatchNormalization", "config": {"name": "batch_normalization_15", "trainable": true, "axis": -1, "momentum": 0.99, "epsilon": 0.001, "center": true, "scale": true, "beta_initializer": {"class_name": "Zeros", "config": {}}, "gamma_initializer": {"class_name": "Ones", "config": {}}, "moving_mean_initializer": {"class_name": "Zeros", "config": {}}, "moving_variance_initializer": {"class_name": "Ones", "config": {}}, "beta_regularizer": null, "gamma_regularizer": null, "beta_constraint": null, "gamma_constraint": null}, "inbound_nodes": [[["conv2d_15", 0, 0, {}]]]}, {"name": "add_5", "class_name": "Add", "config": {"name": "add_5", "trainable": true}, "inbound_nodes": [[["batch_normalization_15", 0, 0, {}], ["activation_13", 0, 0, {}]]]}, {"name": "activation_15", "class_name": "Activation", "config": {"name": "activation_15", "trainable": true, "activation": "relu"}, "inbound_nodes": [[["add_5", 0, 0, {}]]]}, {"name": "max_pooling2d_4", "class_name": "MaxPooling2D", "config": {"name": "max_pooling2d_4", "trainable": true, "pool_size": [2, 2], "padding": "valid", "strides": [2, 2], "data_format": "channels_last"}, "inbound_nodes": [[["activation_15", 0, 0, {}]]]}, {"name": "conv2d_16", "class_name": "Conv2D", "config": {"name": "conv2d_16", "trainable": true, "filters": 128, "kernel_size": [3, 3], "strides": [1, 1], "padding": "same", "data_format": "channels_last", "dilation_rate": [1, 1], "activation": "linear", "use_bias": true, "kernel_initializer": {"class_name": "VarianceScaling", "config": {"scale": 1.0, "mode": "fan_avg", "distribution": "uniform", "seed": null}}, "bias_initializer": {"class_name": "Zeros", "config": {}}, "kernel_regularizer": null, "bias_regularizer": null, "activity_regularizer": null, "kernel_constraint": null, "bias_constraint": null}, "inbound_nodes": [[["max_pooling2d_4", 0, 0, {}]]]}, {"name": "batch_normalization_16", "class_name": "BatchNormalization", "config": {"name": "batch_normalization_16", "trainable": true, "axis": -1, "momentum": 0.99, "epsilon": 0.001, "center": true, "scale": true, "beta_initializer": {"class_name": "Zeros", "config": {}}, "gamma_initializer": {"class_name": "Ones", "config": {}}, "moving_mean_initializer": {"class_name": "Zeros", "config": {}}, "moving_variance_initializer": {"class_name": "Ones", "config": {}}, "beta_regularizer": null, "gamma_regularizer": null, "beta_constraint": null, "gamma_constraint": null}, "inbound_nodes": [[["conv2d_16", 0, 0, {}]]]}, {"name": "activation_16", "class_name": "Activation", "config": {"name": "activation_16", "trainable": true, "activation": "relu"}, "inbound_nodes": [[["batch_normalization_16", 0, 0, {}]]]}, {"name": "conv2d_17", "class_name": "Conv2D", "config": {"name": "conv2d_17", "trainable": true, "filters": 128, "kernel_size": [3, 3], "strides": [1, 1], "padding": "same", "data_format": "channels_last", "dilation_rate": [1, 1], "activation": "linear", "use_bias": true, "kernel_initializer": {"class_name": "VarianceScaling", "config": {"scale": 1.0, "mode": "fan_avg", "distribution": "uniform", "seed": null}}, "bias_initializer": {"class_name": "Zeros", "config": {}}, "kernel_regularizer": null, "bias_regularizer": null, "activity_regularizer": null, "kernel_constraint": null, "bias_constraint": null}, "inbound_nodes": [[["activation_16", 0, 0, {}]]]}, {"name": "batch_normalization_17", "class_name": "BatchNormalization", "config": {"name": "batch_normalization_17", "trainable": true, "axis": -1, "momentum": 0.99, "epsilon": 0.001, "center": true, "scale": true, "beta_initializer": {"class_name": "Zeros", "config": {}}, "gamma_initializer": {"class_name": "Ones", "config": {}}, "moving_mean_initializer": {"class_name": "Zeros", "config": {}}, "moving_variance_initializer": {"class_name": "Ones", "config": {}}, "beta_regularizer": null, "gamma_regularizer": null, "beta_constraint": null, "gamma_constraint": null}, "inbound_nodes": [[["conv2d_17", 0, 0, {}]]]}, {"name": "activation_17", "class_name": "Activation", "config": {"name": "activation_17", "trainable": true, "activation": "relu"}, "inbound_nodes": [[["batch_normalization_17", 0, 0, {}]]]}, {"name": "conv2d_18", "class_name": "Conv2D", "config": {"name": "conv2d_18", "trainable": true, "filters": 128, "kernel_size": [3, 3], "strides": [1, 1], "padding": "same", "data_format": "channels_last", "dilation_rate": [1, 1], "activation": "linear", "use_bias": true, "kernel_initializer": {"class_name": "VarianceScaling", "config": {"scale": 1.0, "mode": "fan_avg", "distribution": "uniform", "seed": null}}, "bias_initializer": {"class_name": "Zeros", "config": {}}, "kernel_regularizer": null, "bias_regularizer": null, "activity_regularizer": null, "kernel_constraint": null, "bias_constraint": null}, "inbound_nodes": [[["activation_17", 0, 0, {}]]]}, {"name": "batch_normalization_18", "class_name": "BatchNormalization", "config": {"name": "batch_normalization_18", "trainable": true, "axis": -1, "momentum": 0.99, "epsilon": 0.001, "center": true, "scale": true, "beta_initializer": {"class_name": "Zeros", "config": {}}, "gamma_initializer": {"class_name": "Ones", "config": {}}, "moving_mean_initializer": {"class_name": "Zeros", "config": {}}, "moving_variance_initializer": {"class_name": "Ones", "config": {}}, "beta_regularizer": null, "gamma_regularizer": null, "beta_constraint": null, "gamma_constraint": null}, "inbound_nodes": [[["conv2d_18", 0, 0, {}]]]}, {"name": "add_6", "class_name": "Add", "config": {"name": "add_6", "trainable": true}, "inbound_nodes": [[["batch_normalization_18", 0, 0, {}], ["activation_16", 0, 0, {}]]]}, {"name": "activation_18", "class_name": "Activation", "config": {"name": "activation_18", "trainable": true, "activation": "relu"}, "inbound_nodes": [[["add_6", 0, 0, {}]]]}, {"name": "conv2d_19", "class_name": "Conv2D", "config": {"name": "conv2d_19", "trainable": true, "filters": 128, "kernel_size": [3, 3], "strides": [1, 1], "padding": "same", "data_format": "channels_last", "dilation_rate": [1, 1], "activation": "linear", "use_bias": true, "kernel_initializer": {"class_name": "VarianceScaling", "config": {"scale": 1.0, "mode": "fan_avg", "distribution": "uniform", "seed": null}}, "bias_initializer": {"class_name": "Zeros", "config": {}}, "kernel_regularizer": null, "bias_regularizer": null, "activity_regularizer": null, "kernel_constraint": null, "bias_constraint": null}, "inbound_nodes": [[["activation_18", 0, 0, {}]]]}, {"name": "batch_normalization_19", "class_name": "BatchNormalization", "config": {"name": "batch_normalization_19", "trainable": true, "axis": -1, "momentum": 0.99, "epsilon": 0.001, "center": true, "scale": true, "beta_initializer": {"class_name": "Zeros", "config": {}}, "gamma_initializer": {"class_name": "Ones", "config": {}}, "moving_mean_initializer": {"class_name": "Zeros", "config": {}}, "moving_variance_initializer": {"class_name": "Ones", "config": {}}, "beta_regularizer": null, "gamma_regularizer": null, "beta_constraint": null, "gamma_constraint": null}, "inbound_nodes": [[["conv2d_19", 0, 0, {}]]]}, {"name": "activation_19", "class_name": "Activation", "config": {"name": "activation_19", "trainable": true, "activation": "relu"}, "inbound_nodes": [[["batch_normalization_19", 0, 0, {}]]]}, {"name": "conv2d_20", "class_name": "Conv2D", "config": {"name": "conv2d_20", "trainable": true, "filters": 128, "kernel_size": [3, 3], "strides": [1, 1], "padding": "same", "data_format": "channels_last", "dilation_rate": [1, 1], "activation": "linear", "use_bias": true, "kernel_initializer": {"class_name": "VarianceScaling", "config": {"scale": 1.0, "mode": "fan_avg", "distribution": "uniform", "seed": null}}, "bias_initializer": {"class_name": "Zeros", "config": {}}, "kernel_regularizer": null, "bias_regularizer": null, "activity_regularizer": null, "kernel_constraint": null, "bias_constraint": null}, "inbound_nodes": [[["activation_19", 0, 0, {}]]]}, {"name": "batch_normalization_20", "class_name": "BatchNormalization", "config": {"name": "batch_normalization_20", "trainable": true, "axis": -1, "momentum": 0.99, "epsilon": 0.001, "center": true, "scale": true, "beta_initializer": {"class_name": "Zeros", "config": {}}, "gamma_initializer": {"class_name": "Ones", "config": {}}, "moving_mean_initializer": {"class_name": "Zeros", "config": {}}, "moving_variance_initializer": {"class_name": "Ones", "config": {}}, "beta_regularizer": null, "gamma_regularizer": null, "beta_constraint": null, "gamma_constraint": null}, "inbound_nodes": [[["conv2d_20", 0, 0, {}]]]}, {"name": "add_7", "class_name": "Add", "config": {"name": "add_7", "trainable": true}, "inbound_nodes": [[["batch_normalization_20", 0, 0, {}], ["activation_18", 0, 0, {}]]]}, {"name": "activation_20", "class_name": "Activation", "config": {"name": "activation_20", "trainable": true, "activation": "relu"}, "inbound_nodes": [[["add_7", 0, 0, {}]]]}, {"name": "conv2d_21", "class_name": "Conv2D", "config": {"name": "conv2d_21", "trainable": true, "filters": 128, "kernel_size": [3, 3], "strides": [1, 1], "padding": "same", "data_format": "channels_last", "dilation_rate": [1, 1], "activation": "linear", "use_bias": true, "kernel_initializer": {"class_name": "VarianceScaling", "config": {"scale": 1.0, "mode": "fan_avg", "distribution": "uniform", "seed": null}}, "bias_initializer": {"class_name": "Zeros", "config": {}}, "kernel_regularizer": null, "bias_regularizer": null, "activity_regularizer": null, "kernel_constraint": null, "bias_constraint": null}, "inbound_nodes": [[["activation_20", 0, 0, {}]]]}, {"name": "batch_normalization_21", "class_name": "BatchNormalization", "config": {"name": "batch_normalization_21", "trainable": true, "axis": -1, "momentum": 0.99, "epsilon": 0.001, "center": true, "scale": true, "beta_initializer": {"class_name": "Zeros", "config": {}}, "gamma_initializer": {"class_name": "Ones", "config": {}}, "moving_mean_initializer": {"class_name": "Zeros", "config": {}}, "moving_variance_initializer": {"class_name": "Ones", "config": {}}, "beta_regularizer": null, "gamma_regularizer": null, "beta_constraint": null, "gamma_constraint": null}, "inbound_nodes": [[["conv2d_21", 0, 0, {}]]]}, {"name": "activation_21", "class_name": "Activation", "config": {"name": "activation_21", "trainable": true, "activation": "relu"}, "inbound_nodes": [[["batch_normalization_21", 0, 0, {}]]]}, {"name": "conv2d_22", "class_name": "Conv2D", "config": {"name": "conv2d_22", "trainable": true, "filters": 128, "kernel_size": [3, 3], "strides": [1, 1], "padding": "same", "data_format": "channels_last", "dilation_rate": [1, 1], "activation": "linear", "use_bias": true, "kernel_initializer": {"class_name": "VarianceScaling", "config": {"scale": 1.0, "mode": "fan_avg", "distribution": "uniform", "seed": null}}, "bias_initializer": {"class_name": "Zeros", "config": {}}, "kernel_regularizer": null, "bias_regularizer": null, "activity_regularizer": null, "kernel_constraint": null, "bias_constraint": null}, "inbound_nodes": [[["activation_21", 0, 0, {}]]]}, {"name": "batch_normalization_22", "class_name": "BatchNormalization", "config": {"name": "batch_normalization_22", "trainable": true, "axis": -1, "momentum": 0.99, "epsilon": 0.001, "center": true, "scale": true, "beta_initializer": {"class_name": "Zeros", "config": {}}, "gamma_initializer": {"class_name": "Ones", "config": {}}, "moving_mean_initializer": {"class_name": "Zeros", "config": {}}, "moving_variance_initializer": {"class_name": "Ones", "config": {}}, "beta_regularizer": null, "gamma_regularizer": null, "beta_constraint": null, "gamma_constraint": null}, "inbound_nodes": [[["conv2d_22", 0, 0, {}]]]}, {"name": "add_8", "class_name": "Add", "config": {"name": "add_8", "trainable": true}, "inbound_nodes": [[["batch_normalization_22", 0, 0, {}], ["activation_20", 0, 0, {}]]]}, {"name": "activation_22", "class_name": "Activation", "config": {"name": "activation_22", "trainable": true, "activation": "relu"}, "inbound_nodes": [[["add_8", 0, 0, {}]]]}, {"name": "conv2d_23", "class_name": "Conv2D", "config": {"name": "conv2d_23", "trainable": true, "filters": 128, "kernel_size": [3, 3], "strides": [1, 1], "padding": "same", "data_format": "channels_last", "dilation_rate": [1, 1], "activation": "linear", "use_bias": true, "kernel_initializer": {"class_name": "VarianceScaling", "config": {"scale": 1.0, "mode": "fan_avg", "distribution": "uniform", "seed": null}}, "bias_initializer": {"class_name": "Zeros", "config": {}}, "kernel_regularizer": null, "bias_regularizer": null, "activity_regularizer": null, "kernel_constraint": null, "bias_constraint": null}, "inbound_nodes": [[["activation_22", 0, 0, {}]]]}, {"name": "batch_normalization_23", "class_name": "BatchNormalization", "config": {"name": "batch_normalization_23", "trainable": true, "axis": -1, "momentum": 0.99, "epsilon": 0.001, "center": true, "scale": true, "beta_initializer": {"class_name": "Zeros", "config": {}}, "gamma_initializer": {"class_name": "Ones", "config": {}}, "moving_mean_initializer": {"class_name": "Zeros", "config": {}}, "moving_variance_initializer": {"class_name": "Ones", "config": {}}, "beta_regularizer": null, "gamma_regularizer": null, "beta_constraint": null, "gamma_constraint": null}, "inbound_nodes": [[["conv2d_23", 0, 0, {}]]]}, {"name": "activation_23", "class_name": "Activation", "config": {"name": "activation_23", "trainable": true, "activation": "relu"}, "inbound_nodes": [[["batch_normalization_23", 0, 0, {}]]]}, {"name": "conv2d_24", "class_name": "Conv2D", "config": {"name": "conv2d_24", "trainable": true, "filters": 128, "kernel_size": [3, 3], "strides": [1, 1], "padding": "same", "data_format": "channels_last", "dilation_rate": [1, 1], "activation": "linear", "use_bias": true, "kernel_initializer": {"class_name": "VarianceScaling", "config": {"scale": 1.0, "mode": "fan_avg", "distribution": "uniform", "seed": null}}, "bias_initializer": {"class_name": "Zeros", "config": {}}, "kernel_regularizer": null, "bias_regularizer": null, "activity_regularizer": null, "kernel_constraint": null, "bias_constraint": null}, "inbound_nodes": [[["activation_23", 0, 0, {}]]]}, {"name": "batch_normalization_24", "class_name": "BatchNormalization", "config": {"name": "batch_normalization_24", "trainable": true, "axis": -1, "momentum": 0.99, "epsilon": 0.001, "center": true, "scale": true, "beta_initializer": {"class_name": "Zeros", "config": {}}, "gamma_initializer": {"class_name": "Ones", "config": {}}, "moving_mean_initializer": {"class_name": "Zeros", "config": {}}, "moving_variance_initializer": {"class_name": "Ones", "config": {}}, "beta_regularizer": null, "gamma_regularizer": null, "beta_constraint": null, "gamma_constraint": null}, "inbound_nodes": [[["conv2d_24", 0, 0, {}]]]}, {"name": "add_9", "class_name": "Add", "config": {"name": "add_9", "trainable": true}, "inbound_nodes": [[["batch_normalization_24", 0, 0, {}], ["activation_22", 0, 0, {}]]]}, {"name": "activation_24", "class_name": "Activation", "config": {"name": "activation_24", "trainable": true, "activation": "relu"}, "inbound_nodes": [[["add_9", 0, 0, {}]]]}, {"name": "conv2d_25", "class_name": "Conv2D", "config": {"name": "conv2d_25", "trainable": true, "filters": 2, "kernel_size": [3, 3], "strides": [1, 1], "padding": "same", "data_format": "channels_last", "dilation_rate": [1, 1], "activation": "softmax", "use_bias": true, "kernel_initializer": {"class_name": "VarianceScaling", "config": {"scale": 1.0, "mode": "fan_avg", "distribution": "uniform", "seed": null}}, "bias_initializer": {"class_name": "Zeros", "config": {}}, "kernel_regularizer": null, "bias_regularizer": null, "activity_regularizer": null, "kernel_constraint": null, "bias_constraint": null}, "inbound_nodes": [[["activation_24", 0, 0, {}]]]}, {"name": "conv2d_26", "class_name": "Conv2D", "config": {"name": "conv2d_26", "trainable": true, "filters": 6, "kernel_size": [3, 3], "strides": [1, 1], "padding": "same", "data_format": "channels_last", "dilation_rate": [1, 1], "activation": "linear", "use_bias": true, "kernel_initializer": {"class_name": "VarianceScaling", "config": {"scale": 1.0, "mode": "fan_avg", "distribution": "uniform", "seed": null}}, "bias_initializer": {"class_name": "Zeros", "config": {}}, "kernel_regularizer": null, "bias_regularizer": null, "activity_regularizer": null, "kernel_constraint": null, "bias_constraint": null}, "inbound_nodes": [[["activation_24", 0, 0, {}]]]}, {"name": "concatenate_1", "class_name": "Concatenate", "config": {"name": "concatenate_1", "trainable": true, "axis": 3}, "inbound_nodes": [[["conv2d_25", 0, 0, {}], ["conv2d_26", 0, 0, {}]]]}], "input_layers": [["input", 0, 0]], "output_layers": [["concatenate_1", 0, 0]]}}}, "weightsManifest": [{"paths": ["group1-shard1of1.bin"], "weights": [{"name": "batch_normalization_1/gamma", "shape": [16], "dtype": "float32", "quantization": {"min": 0.2999918758869171, "scale": 0.004413752345477834, "dtype": "uint8"}}, {"name": "batch_normalization_1/beta", "shape": [16], "dtype": "float32", "quantization": {"min": -0.6017125536413753, "scale": 0.007337957971236285, "dtype": "uint8"}}, {"name": "batch_normalization_1/moving_mean", "shape": [16], "dtype": "float32", "quantization": {"min": -1.2501264516045065, "scale": 0.01157524492226395, "dtype": "uint8"}}, {"name": "batch_normalization_1/moving_variance", "shape": [16], "dtype": "float32", "quantization": {"min": 0.013858144171535969, "scale": 0.006658726795485207, "dtype": "uint8"}}, {"name": "batch_normalization_10/gamma", "shape": [64], "dtype": "float32", "quantization": {"min": 0.4282984733581543, "scale": 0.004226459708868289, "dtype": "uint8"}}, {"name": "batch_normalization_10/beta", "shape": [64], "dtype": "float32", "quantization": {"min": -1.1732323191913905, "scale": 0.006142577587389479, "dtype": "uint8"}}, {"name": "batch_normalization_10/moving_mean", "shape": [64], "dtype": "float32", "quantization": {"min": -8.47335859747494, "scale": 0.03978102627922507, "dtype": "uint8"}}, {"name": "batch_normalization_10/moving_variance", "shape": [64], "dtype": "float32", "quantization": {"min": 19.33270263671875, "scale": 0.13149826947380513, "dtype": "uint8"}}, {"name": "batch_normalization_11/gamma", "shape": [64], "dtype": "float32", "quantization": {"min": 0.9233416318893433, "scale": 0.0016630892660103593, "dtype": "uint8"}}, {"name": "batch_normalization_11/beta", "shape": [64], "dtype": "float32", "quantization": {"min": -0.77851416229033, "scale": 0.0037976300599528293, "dtype": "uint8"}}, {"name": "batch_normalization_11/moving_mean", "shape": [64], "dtype": "float32", "quantization": {"min": -39.307632625804224, "scale": 0.25197200401156555, "dtype": "uint8"}}, {"name": "batch_normalization_11/moving_variance", "shape": [64], "dtype": "float32", "quantization": {"min": 187.3041229248047, "scale": 1.1029107187308518, "dtype": "uint8"}}, {"name": "batch_normalization_12/gamma", "shape": [64], "dtype": "float32", "quantization": {"min": 0.6577532887458801, "scale": 0.0024375642047208897, "dtype": "uint8"}}, {"name": "batch_normalization_12/beta", "shape": [64], "dtype": "float32", "quantization": {"min": -1.220902681350708, "scale": 0.004065335439700706, "dtype": "uint8"}}, {"name": "batch_normalization_12/moving_mean", "shape": [64], "dtype": "float32", "quantization": {"min": -17.079440935920267, "scale": 0.1016633389042873, "dtype": "uint8"}}, {"name": "batch_normalization_12/moving_variance", "shape": [64], "dtype": "float32", "quantization": {"min": 49.40229415893555, "scale": 0.3324379266477099, "dtype": "uint8"}}, {"name": "batch_normalization_13/gamma", "shape": [64], "dtype": "float32", "quantization": {"min": 0.5766222476959229, "scale": 0.0028006333930819644, "dtype": "uint8"}}, {"name": "batch_normalization_13/beta", "shape": [64], "dtype": "float32", "quantization": {"min": -0.8106441101607154, "scale": 0.003434932670172523, "dtype": "uint8"}}, {"name": "batch_normalization_13/moving_mean", "shape": [64], "dtype": "float32", "quantization": {"min": -10.780187763887293, "scale": 0.06494089014389935, "dtype": "uint8"}}, {"name": "batch_normalization_13/moving_variance", "shape": [64], "dtype": "float32", "quantization": {"min": 20.11894416809082, "scale": 0.17646411820953967, "dtype": "uint8"}}, {"name": "batch_normalization_14/gamma", "shape": [64], "dtype": "float32", "quantization": {"min": 0.7091107368469238, "scale": 0.0024081024469113817, "dtype": "uint8"}}, {"name": "batch_normalization_14/beta", "shape": [64], "dtype": "float32", "quantization": {"min": -1.822746992111206, "scale": 0.0059192455282398295, "dtype": "uint8"}}, {"name": "batch_normalization_14/moving_mean", "shape": [64], "dtype": "float32", "quantization": {"min": -19.474977358649756, "scale": 0.17545024647432214, "dtype": "uint8"}}, {"name": "batch_normalization_14/moving_variance", "shape": [64], "dtype": "float32", "quantization": {"min": 65.89677429199219, "scale": 0.7667299158432904, "dtype": "uint8"}}, {"name": "batch_normalization_15/gamma", "shape": [64], "dtype": "float32", "quantization": {"min": 0.4544869065284729, "scale": 0.0036588110175787233, "dtype": "uint8"}}, {"name": "batch_normalization_15/beta", "shape": [64], "dtype": "float32", "quantization": {"min": -0.9151889681816101, "scale": 0.0035767624812091097, "dtype": "uint8"}}, {"name": "batch_normalization_15/moving_mean", "shape": [64], "dtype": "float32", "quantization": {"min": -5.471633985930798, "scale": 0.03237653246112898, "dtype": "uint8"}}, {"name": "batch_normalization_15/moving_variance", "shape": [64], "dtype": "float32", "quantization": {"min": 13.277718544006348, "scale": 0.06971901912315219, "dtype": "uint8"}}, {"name": "batch_normalization_16/gamma", "shape": [128], "dtype": "float32", "quantization": {"min": 0.17977675795555115, "scale": 0.0024864543886745677, "dtype": "uint8"}}, {"name": "batch_normalization_16/beta", "shape": [128], "dtype": "float32", "quantization": {"min": -0.729309374327753, "scale": 0.0029407636061602946, "dtype": "uint8"}}, {"name": "batch_normalization_16/moving_mean", "shape": [128], "dtype": "float32", "quantization": {"min": -43.482128442502486, "scale": 0.2998767478793275, "dtype": "uint8"}}, {"name": "batch_normalization_16/moving_variance", "shape": [128], "dtype": "float32", "quantization": {"min": 225.19801330566406, "scale": 1.5972102744906556, "dtype": "uint8"}}, {"name": "batch_normalization_17/gamma", "shape": [128], "dtype": "float32", "quantization": {"min": 0.6401265859603882, "scale": 0.0032306558945599723, "dtype": "uint8"}}, {"name": "batch_normalization_17/beta", "shape": [128], "dtype": "float32", "quantization": {"min": -1.6882805052925558, "scale": 0.006919182398739983, "dtype": "uint8"}}, {"name": "batch_normalization_17/moving_mean", "shape": [128], "dtype": "float32", "quantization": {"min": -7.701971794577206, "scale": 0.07131455365349265, "dtype": "uint8"}}, {"name": "batch_normalization_17/moving_variance", "shape": [128], "dtype": "float32", "quantization": {"min": 14.092662811279297, "scale": 0.13152244418275122, "dtype": "uint8"}}, {"name": "batch_normalization_18/gamma", "shape": [128], "dtype": "float32", "quantization": {"min": 0.12702512741088867, "scale": 0.0034507461622649547, "dtype": "uint8"}}, {"name": "batch_normalization_18/beta", "shape": [128], "dtype": "float32", "quantization": {"min": -2.063079244782235, "scale": 0.00821943922223998, "dtype": "uint8"}}, {"name": "batch_normalization_18/moving_mean", "shape": [128], "dtype": "float32", "quantization": {"min": -12.51161781759823, "scale": 0.09478498346665326, "dtype": "uint8"}}, {"name": "batch_normalization_18/moving_variance", "shape": [128], "dtype": "float32", "quantization": {"min": 33.65345764160156, "scale": 1.829741175034467, "dtype": "uint8"}}, {"name": "batch_normalization_19/gamma", "shape": [128], "dtype": "float32", "quantization": {"min": 0.6624351739883423, "scale": 0.004212392077726476, "dtype": "uint8"}}, {"name": "batch_normalization_19/beta", "shape": [128], "dtype": "float32", "quantization": {"min": -0.9411628246307373, "scale": 0.0030955243928759706, "dtype": "uint8"}}, {"name": "batch_normalization_19/moving_mean", "shape": [128], "dtype": "float32", "quantization": {"min": -6.921763739866369, "scale": 0.05627450195013308, "dtype": "uint8"}}, {"name": "batch_normalization_19/moving_variance", "shape": [128], "dtype": "float32", "quantization": {"min": 10.641661643981934, "scale": 0.21630725112615848, "dtype": "uint8"}}, {"name": "batch_normalization_2/gamma", "shape": [16], "dtype": "float32", "quantization": {"min": 0.5727763772010803, "scale": 0.003552580580991857, "dtype": "uint8"}}, {"name": "batch_normalization_2/beta", "shape": [16], "dtype": "float32", "quantization": {"min": -0.6042961702627294, "scale": 0.007649318610920625, "dtype": "uint8"}}, {"name": "batch_normalization_2/moving_mean", "shape": [16], "dtype": "float32", "quantization": {"min": -9.35888823153926, "scale": 0.05537803687301337, "dtype": "uint8"}}, {"name": "batch_normalization_2/moving_variance", "shape": [16], "dtype": "float32", "quantization": {"min": 6.393599033355713, "scale": 0.18661522023818072, "dtype": "uint8"}}, {"name": "batch_normalization_20/gamma", "shape": [128], "dtype": "float32", "quantization": {"min": 0.23074033856391907, "scale": 0.004784371689254162, "dtype": "uint8"}}, {"name": "batch_normalization_20/beta", "shape": [128], "dtype": "float32", "quantization": {"min": -1.8996118731358473, "scale": 0.007948166833204382, "dtype": "uint8"}}, {"name": "batch_normalization_20/moving_mean", "shape": [128], "dtype": "float32", "quantization": {"min": -21.192572500191485, "scale": 0.12766609939874388, "dtype": "uint8"}}, {"name": "batch_normalization_20/moving_variance", "shape": [128], "dtype": "float32", "quantization": {"min": 45.41753387451172, "scale": 36.59317725686466, "dtype": "uint8"}}, {"name": "batch_normalization_21/gamma", "shape": [128], "dtype": "float32", "quantization": {"min": 0.6086359024047852, "scale": 0.004473844229006299, "dtype": "uint8"}}, {"name": "batch_normalization_21/beta", "shape": [128], "dtype": "float32", "quantization": {"min": -0.7601160491214078, "scale": 0.00367205820831598, "dtype": "uint8"}}, {"name": "batch_normalization_21/moving_mean", "shape": [128], "dtype": "float32", "quantization": {"min": -10.016019866045783, "scale": 0.07949222115909352, "dtype": "uint8"}}, {"name": "batch_normalization_21/moving_variance", "shape": [128], "dtype": "float32", "quantization": {"min": 15.555291175842285, "scale": 1.0856464722577264, "dtype": "uint8"}}, {"name": "batch_normalization_22/gamma", "shape": [128], "dtype": "float32", "quantization": {"min": 0.1836642324924469, "scale": 0.005067312834309596, "dtype": "uint8"}}, {"name": "batch_normalization_22/beta", "shape": [128], "dtype": "float32", "quantization": {"min": -1.6275759615150154, "scale": 0.007298546912623387, "dtype": "uint8"}}, {"name": "batch_normalization_22/moving_mean", "shape": [128], "dtype": "float32", "quantization": {"min": -21.393918224409514, "scale": 0.14168157764509612, "dtype": "uint8"}}, {"name": "batch_normalization_22/moving_variance", "shape": [128], "dtype": "float32", "quantization": {"min": 45.68492889404297, "scale": 68.001250891592, "dtype": "uint8"}}, {"name": "batch_normalization_23/gamma", "shape": [128], "dtype": "float32", "quantization": {"min": 0.42756861448287964, "scale": 0.005365060591230205, "dtype": "uint8"}}, {"name": "batch_normalization_23/beta", "shape": [128], "dtype": "float32", "quantization": {"min": -0.7133579739168578, "scale": 0.00422105310009975, "dtype": "uint8"}}, {"name": "batch_normalization_23/moving_mean", "shape": [128], "dtype": "float32", "quantization": {"min": -9.582070406745462, "scale": 0.13688672009636374, "dtype": "uint8"}}, {"name": "batch_normalization_23/moving_variance", "shape": [128], "dtype": "float32", "quantization": {"min": 30.86542320251465, "scale": 5.731475687961952, "dtype": "uint8"}}, {"name": "batch_normalization_24/gamma", "shape": [128], "dtype": "float32", "quantization": {"min": 0.33778342604637146, "scale": 0.007940813723732443, "dtype": "uint8"}}, {"name": "batch_normalization_24/beta", "shape": [128], "dtype": "float32", "quantization": {"min": -2.0843954097990895, "scale": 0.00843884781295178, "dtype": "uint8"}}, {"name": "batch_normalization_24/moving_mean", "shape": [128], "dtype": "float32", "quantization": {"min": -35.247634738099336, "scale": 0.2711356518315334, "dtype": "uint8"}}, {"name": "batch_normalization_24/moving_variance", "shape": [128], "dtype": "float32", "quantization": {"min": 71.10714721679688, "scale": 87.00557705748315, "dtype": "uint8"}}, {"name": "batch_normalization_3/gamma", "shape": [32], "dtype": "float32", "quantization": {"min": 0.7741893529891968, "scale": 0.0031474861444211475, "dtype": "uint8"}}, {"name": "batch_normalization_3/beta", "shape": [32], "dtype": "float32", "quantization": {"min": -0.7544118376339184, "scale": 0.006286765313615986, "dtype": "uint8"}}, {"name": "batch_normalization_3/moving_mean", "shape": [32], "dtype": "float32", "quantization": {"min": -10.474380313648897, "scale": 0.09188052906709558, "dtype": "uint8"}}, {"name": "batch_normalization_3/moving_variance", "shape": [32], "dtype": "float32", "quantization": {"min": 14.472701072692871, "scale": 0.22391600141338275, "dtype": "uint8"}}, {"name": "batch_normalization_4/gamma", "shape": [32], "dtype": "float32", "quantization": {"min": 0.8233062624931335, "scale": 0.0030237055292316514, "dtype": "uint8"}}, {"name": "batch_normalization_4/beta", "shape": [32], "dtype": "float32", "quantization": {"min": -0.8237123685724596, "scale": 0.005968930207046808, "dtype": "uint8"}}, {"name": "batch_normalization_4/moving_mean", "shape": [32], "dtype": "float32", "quantization": {"min": -21.414828625847314, "scale": 0.18784937391094134, "dtype": "uint8"}}, {"name": "batch_normalization_4/moving_variance", "shape": [32], "dtype": "float32", "quantization": {"min": 27.026269912719727, "scale": 0.365229580449123, "dtype": "uint8"}}, {"name": "batch_normalization_5/gamma", "shape": [32], "dtype": "float32", "quantization": {"min": 0.4005604386329651, "scale": 0.0038241318627899768, "dtype": "uint8"}}, {"name": "batch_normalization_5/beta", "shape": [32], "dtype": "float32", "quantization": {"min": -0.7268314367415859, "scale": 0.0035804504272984525, "dtype": "uint8"}}, {"name": "batch_normalization_5/moving_mean", "shape": [32], "dtype": "float32", "quantization": {"min": -9.099615097045898, "scale": 0.050553417205810545, "dtype": "uint8"}}, {"name": "batch_normalization_5/moving_variance", "shape": [32], "dtype": "float32", "quantization": {"min": 27.17310333251953, "scale": 0.1704939000746783, "dtype": "uint8"}}, {"name": "batch_normalization_6/gamma", "shape": [64], "dtype": "float32", "quantization": {"min": 0.6847438216209412, "scale": 0.002885555519777186, "dtype": "uint8"}}, {"name": "batch_normalization_6/beta", "shape": [64], "dtype": "float32", "quantization": {"min": -1.0413065294424693, "scale": 0.0055684841146656115, "dtype": "uint8"}}, {"name": "batch_normalization_6/moving_mean", "shape": [64], "dtype": "float32", "quantization": {"min": -39.613671112060544, "scale": 0.21183781343347885, "dtype": "uint8"}}, {"name": "batch_normalization_6/moving_variance", "shape": [64], "dtype": "float32", "quantization": {"min": 69.30962371826172, "scale": 0.9172570621266084, "dtype": "uint8"}}, {"name": "batch_normalization_7/gamma", "shape": [64], "dtype": "float32", "quantization": {"min": 0.6130209565162659, "scale": 0.0029902035114811915, "dtype": "uint8"}}, {"name": "batch_normalization_7/beta", "shape": [64], "dtype": "float32", "quantization": {"min": -0.8321083784103394, "scale": 0.0032168315906150667, "dtype": "uint8"}}, {"name": "batch_normalization_7/moving_mean", "shape": [64], "dtype": "float32", "quantization": {"min": -27.04418764301375, "scale": 0.20182229584338618, "dtype": "uint8"}}, {"name": "batch_normalization_7/moving_variance", "shape": [64], "dtype": "float32", "quantization": {"min": 81.5834732055664, "scale": 0.570021655512791, "dtype": "uint8"}}, {"name": "batch_normalization_8/gamma", "shape": [64], "dtype": "float32", "quantization": {"min": 0.5781559944152832, "scale": 0.0031119603736727845, "dtype": "uint8"}}, {"name": "batch_normalization_8/beta", "shape": [64], "dtype": "float32", "quantization": {"min": -1.1003264752673168, "scale": 0.0051177975593828685, "dtype": "uint8"}}, {"name": "batch_normalization_8/moving_mean", "shape": [64], "dtype": "float32", "quantization": {"min": -11.535869329115926, "scale": 0.07394788031484567, "dtype": "uint8"}}, {"name": "batch_normalization_8/moving_variance", "shape": [64], "dtype": "float32", "quantization": {"min": 23.22867202758789, "scale": 0.1946474411908318, "dtype": "uint8"}}, {"name": "batch_normalization_9/gamma", "shape": [64], "dtype": "float32", "quantization": {"min": 0.644463837146759, "scale": 0.0025618826641755944, "dtype": "uint8"}}, {"name": "batch_normalization_9/beta", "shape": [64], "dtype": "float32", "quantization": {"min": -1.284111499786377, "scale": 0.003966660125582826, "dtype": "uint8"}}, {"name": "batch_normalization_9/moving_mean", "shape": [64], "dtype": "float32", "quantization": {"min": -26.144452899110085, "scale": 0.25885596929811966, "dtype": "uint8"}}, {"name": "batch_normalization_9/moving_variance", "shape": [64], "dtype": "float32", "quantization": {"min": 116.6897964477539, "scale": 0.764845993939568, "dtype": "uint8"}}, {"name": "conv2d_1/kernel", "shape": [3, 3, 3, 16], "dtype": "float32", "quantization": {"min": -0.9334489906535429, "scale": 0.008188149040820552, "dtype": "uint8"}}, {"name": "conv2d_1/bias", "shape": [16], "dtype": "float32", "quantization": {"min": -0.4976729246915555, "scale": 0.0034802302425982904, "dtype": "uint8"}}, {"name": "conv2d_10/kernel", "shape": [3, 3, 64, 64], "dtype": "float32", "quantization": {"min": -1.6489856177685307, "scale": 0.011531367956423292, "dtype": "uint8"}}, {"name": "conv2d_10/bias", "shape": [64], "dtype": "float32", "quantization": {"min": -0.4813627012804443, "scale": 0.003978204142813589, "dtype": "uint8"}}, {"name": "conv2d_11/kernel", "shape": [3, 3, 64, 64], "dtype": "float32", "quantization": {"min": -1.3639886304443958, "scale": 0.011272633309457816, "dtype": "uint8"}}, {"name": "conv2d_11/bias", "shape": [64], "dtype": "float32", "quantization": {"min": -0.18535030624445747, "scale": 0.0015069130588980283, "dtype": "uint8"}}, {"name": "conv2d_12/kernel", "shape": [3, 3, 64, 64], "dtype": "float32", "quantization": {"min": -1.567437983494179, "scale": 0.012245609246048273, "dtype": "uint8"}}, {"name": "conv2d_12/bias", "shape": [64], "dtype": "float32", "quantization": {"min": -0.15887207353816313, "scale": 0.001621143607532277, "dtype": "uint8"}}, {"name": "conv2d_13/kernel", "shape": [3, 3, 64, 64], "dtype": "float32", "quantization": {"min": -1.5740292399537328, "scale": 0.014309356726852117, "dtype": "uint8"}}, {"name": "conv2d_13/bias", "shape": [64], "dtype": "float32", "quantization": {"min": -0.2642890197389266, "scale": 0.0019576964425105673, "dtype": "uint8"}}, {"name": "conv2d_14/kernel", "shape": [3, 3, 64, 64], "dtype": "float32", "quantization": {"min": -1.6388919797598147, "scale": 0.013544561816196815, "dtype": "uint8"}}, {"name": "conv2d_14/bias", "shape": [64], "dtype": "float32", "quantization": {"min": -0.24633928397122554, "scale": 0.0016644546214271995, "dtype": "uint8"}}, {"name": "conv2d_15/kernel", "shape": [3, 3, 64, 64], "dtype": "float32", "quantization": {"min": -1.5468882448533003, "scale": 0.013569195130292108, "dtype": "uint8"}}, {"name": "conv2d_15/bias", "shape": [64], "dtype": "float32", "quantization": {"min": -0.2487659648352978, "scale": 0.0016474567207635617, "dtype": "uint8"}}, {"name": "conv2d_16/kernel", "shape": [3, 3, 64, 128], "dtype": "float32", "quantization": {"min": -1.855632324779735, "scale": 0.013446611049128514, "dtype": "uint8"}}, {"name": "conv2d_16/bias", "shape": [128], "dtype": "float32", "quantization": {"min": -0.1691731399473022, "scale": 0.0011508376867163416, "dtype": "uint8"}}, {"name": "conv2d_17/kernel", "shape": [3, 3, 128, 128], "dtype": "float32", "quantization": {"min": -1.7940315050237319, "scale": 0.019290661344341202, "dtype": "uint8"}}, {"name": "conv2d_17/bias", "shape": [128], "dtype": "float32", "quantization": {"min": -0.33761345545450844, "scale": 0.001918258269627889, "dtype": "uint8"}}, {"name": "conv2d_18/kernel", "shape": [3, 3, 128, 128], "dtype": "float32", "quantization": {"min": -2.3179426305434285, "scale": 0.017428140079273898, "dtype": "uint8"}}, {"name": "conv2d_18/bias", "shape": [128], "dtype": "float32", "quantization": {"min": -0.21297597499454723, "scale": 0.0016509765503453274, "dtype": "uint8"}}, {"name": "conv2d_19/kernel", "shape": [3, 3, 128, 128], "dtype": "float32", "quantization": {"min": -1.7795074547038359, "scale": 0.0191344887602563, "dtype": "uint8"}}, {"name": "conv2d_19/bias", "shape": [128], "dtype": "float32", "quantization": {"min": -0.32422490973098606, "scale": 0.0024749993109235576, "dtype": "uint8"}}, {"name": "conv2d_2/kernel", "shape": [3, 3, 16, 16], "dtype": "float32", "quantization": {"min": -1.4922597595289642, "scale": 0.010508871545978621, "dtype": "uint8"}}, {"name": "conv2d_2/bias", "shape": [16], "dtype": "float32", "quantization": {"min": -0.6189437508583069, "scale": 0.007281691186568316, "dtype": "uint8"}}, {"name": "conv2d_20/kernel", "shape": [3, 3, 128, 128], "dtype": "float32", "quantization": {"min": -2.62005503504884, "scale": 0.01690358087128284, "dtype": "uint8"}}, {"name": "conv2d_20/bias", "shape": [128], "dtype": "float32", "quantization": {"min": -0.19884656550837498, "scale": 0.001565720988254921, "dtype": "uint8"}}, {"name": "conv2d_21/kernel", "shape": [3, 3, 128, 128], "dtype": "float32", "quantization": {"min": -2.7345923292870618, "scale": 0.01847697519788555, "dtype": "uint8"}}, {"name": "conv2d_21/bias", "shape": [128], "dtype": "float32", "quantization": {"min": -0.3238522069126952, "scale": 0.0024349789993435727, "dtype": "uint8"}}, {"name": "conv2d_22/kernel", "shape": [3, 3, 128, 128], "dtype": "float32", "quantization": {"min": -2.307924367867264, "scale": 0.018917412851371017, "dtype": "uint8"}}, {"name": "conv2d_22/bias", "shape": [128], "dtype": "float32", "quantization": {"min": -0.2657654727206511, "scale": 0.0021092497834972307, "dtype": "uint8"}}, {"name": "conv2d_23/kernel", "shape": [3, 3, 128, 128], "dtype": "float32", "quantization": {"min": -2.7314764621211034, "scale": 0.02354721088035434, "dtype": "uint8"}}, {"name": "conv2d_23/bias", "shape": [128], "dtype": "float32", "quantization": {"min": -0.2776783732806935, "scale": 0.002103624040005254, "dtype": "uint8"}}, {"name": "conv2d_24/kernel", "shape": [3, 3, 128, 128], "dtype": "float32", "quantization": {"min": -3.740518008961397, "scale": 0.023378237556008732, "dtype": "uint8"}}, {"name": "conv2d_24/bias", "shape": [128], "dtype": "float32", "quantization": {"min": -19.801532835118913, "scale": 0.16364903169519762, "dtype": "uint8"}}, {"name": "conv2d_25/kernel", "shape": [3, 3, 128, 2], "dtype": "float32", "quantization": {"min": -6.761429610906863, "scale": 0.052823668835209864, "dtype": "uint8"}}, {"name": "conv2d_25/bias", "shape": [2], "dtype": "float32", "quantization": {"min": -0.20065295485889212, "scale": 0.0015799445264479694, "dtype": "uint8"}}, {"name": "conv2d_26/kernel", "shape": [3, 3, 128, 6], "dtype": "float32", "quantization": {"min": -1.0244364135405597, "scale": 0.009065808969385483, "dtype": "uint8"}}, {"name": "conv2d_26/bias", "shape": [6], "dtype": "float32", "quantization": {"min": -0.016386114645238016, "scale": 0.0032772229290476034, "dtype": "uint8"}}, {"name": "conv2d_3/kernel", "shape": [3, 3, 16, 32], "dtype": "float32", "quantization": {"min": -1.1788726484074312, "scale": 0.01122735855626125, "dtype": "uint8"}}, {"name": "conv2d_3/bias", "shape": [32], "dtype": "float32", "quantization": {"min": -0.6267314434051513, "scale": 0.004541532198588053, "dtype": "uint8"}}, {"name": "conv2d_4/kernel", "shape": [3, 3, 32, 32], "dtype": "float32", "quantization": {"min": -1.2407926110660328, "scale": 0.010339938425550274, "dtype": "uint8"}}, {"name": "conv2d_4/bias", "shape": [32], "dtype": "float32", "quantization": {"min": -0.3532040655612945, "scale": 0.0030188381671905516, "dtype": "uint8"}}, {"name": "conv2d_5/kernel", "shape": [3, 3, 32, 32], "dtype": "float32", "quantization": {"min": -1.3645485639572144, "scale": 0.011865639686584472, "dtype": "uint8"}}, {"name": "conv2d_5/bias", "shape": [32], "dtype": "float32", "quantization": {"min": -0.5216542103711297, "scale": 0.00483013157751046, "dtype": "uint8"}}, {"name": "conv2d_6/kernel", "shape": [3, 3, 32, 64], "dtype": "float32", "quantization": {"min": -1.6114856916315417, "scale": 0.01193693104912253, "dtype": "uint8"}}, {"name": "conv2d_6/bias", "shape": [64], "dtype": "float32", "quantization": {"min": -0.45767831802368164, "scale": 0.0033652817501741298, "dtype": "uint8"}}, {"name": "conv2d_7/kernel", "shape": [3, 3, 64, 64], "dtype": "float32", "quantization": {"min": -1.4942896450267118, "scale": 0.012148696301030177, "dtype": "uint8"}}, {"name": "conv2d_7/bias", "shape": [64], "dtype": "float32", "quantization": {"min": -0.5571673963584152, "scale": 0.004189228544048234, "dtype": "uint8"}}, {"name": "conv2d_8/kernel", "shape": [3, 3, 64, 64], "dtype": "float32", "quantization": {"min": -1.706934045342838, "scale": 0.011379560302285588, "dtype": "uint8"}}, {"name": "conv2d_8/bias", "shape": [64], "dtype": "float32", "quantization": {"min": -0.2500994745422812, "scale": 0.002526257318608901, "dtype": "uint8"}}, {"name": "conv2d_9/kernel", "shape": [3, 3, 64, 64], "dtype": "float32", "quantization": {"min": -1.5421836217244465, "scale": 0.011339585453856224, "dtype": "uint8"}}, {"name": "conv2d_9/bias", "shape": [64], "dtype": "float32", "quantization": {"min": -0.369152972277473, "scale": 0.0024447216707117417, "dtype": "uint8"}}]}]}